…
e dimension self.fc2 = nn.Linear(120, 84) self.fc3 = nn.Linear(84, 10) def forward(self, x): # Max pooling over a (2, 2) window x = F.max_pool2d(F.relu(self.conv1(x)), (2, 2)) # If the size is a square you can only specify a single number x = F.max_pool2d(F.relu(self.conv2(x)), 2) x = x.view(-1, self.num_flat_features(x)) x = F.relu(self.fc1(x)) x = F.relu(self.fc2(x)) x = self.fc3(x) return x def num_flat_features(self, x): size = x.size()[1:] # all dimensions except the batch dimension num_features = 1 for s in size: num_features *= s return num_features net = Net() print(net) 出： Net( (conv1): Conv2d(1, 6, kernel_size=(3, 3), stride=(1, 1)) (conv2): Conv2d(6, 16, kernel_size=(3, 3), stride=(1, 1)) (fc1): Linear(in_features=576, out_features=120, bias=True) (fc2): Linear(in_features=120, out_features=84, bias=True) (fc3): Linear(in_features=84, out_features=10, bias=True) ) 您只需要定义forward函数，就可以使用autograd为您自动定义backward函数（计算梯度）。 您可以在forward函数中使用任何张量操作。 模型的可学习参数由net.parameters()返回 params = list(net.parameters()) print(len(params)) print(params[0].size()) # conv1's .weight 出： 10 torch.Size([6, 1, 3, 3]) 让我们尝试一个32x32随机输入。 注意：该网络的预期输入大小（LeNet）为32x32。 要在 MNIST 数据集上使用此网络，请将图像从数据集中调整为32x32。 input = torch.randn(1, 1, 32, 32) out = n
…
n.ReLU(True), # state size. (ngf) x 32 x 32 nn.ConvTranspose2d( ngf, nc, 4, 2, 1, bias=False), nn.Tanh() # state size. (nc) x 64 x 64 ) def forward(self, input): return self.main(input) 现在，我们可以实例化生成器并应用weights_init函数。 签出打印的模型以查看生成器对象的结构。 # Create the generator netG = Generator(ngpu).to(device) # Handle multi-gpu if desired if (device.type == 'cuda') and (ngpu > 1): netG = nn.DataParallel(netG, list(range(ngpu))) # Apply the weights_init function to randomly initialize all weights # to mean=0, stdev=0.2. netG.apply(weights_init) # Print the model print(netG) 出： Generator( (main): Sequential( (0): ConvTranspose2d(100, 512, kernel_size=(4, 4), stride=(1, 1), bias=False) (1): BatchNorm2d(512, eps=1e-05, momentum=0.1, affine=True, track_running_stats=True) (2): ReLU(inplace=True) (3): ConvTranspose2d(512, 256, kernel_size=(4, 4), stride=(2, 2), padding=(1, 1), bias=False) (4): BatchNorm2d(256, eps=1e-05, momentum=0.1, affine=True, track_running_stats=True) (5): ReLU(inplace=True) (6): ConvTranspose2d(256, 128, kernel_size=(4, 4), stride=(2, 2), padding=(1, 1), bias=False) (7): BatchNorm2d(128, eps=1e-05, momentum=0.1, affine=True, track_running_stats=True) (8): ReLU(inplace=True) (9): ConvTranspose2d(128, 64, kernel_size=(4, 4), stride=(2, 2), padding=(1, 1), bias=False) (10): BatchNorm2d(64, eps=1e-05, momentum=0.1, affine=True, track_running_stats=True) (11): ReLU(inplace=True) (12): ConvTranspose2d(64, 3, kernel_size=(4, 4), stride=(2, 2), padding=(1, 1), bias=False) (13): Tanh() ) ) 判别器 如前所述，判别器D是一个二分类网络，将图像作为输入并输出标量概率，即输入图像是真实的（与假的相对）。 在这里，D拍摄3x64x64的输入图像，通过一系列的Conv2d，BatchNorm2d和LeakyReLU层对其进行处理，然后通过 Sigmoid 激活函数输出最终概率。 如果需要解决此问题，可以用更多层扩展此架构，但是使用跨步卷积，BatchNorm和LeakyReLU仍然很重要。 DCGAN 论文提到，使用跨步卷积而不是通过池化来进行下采样是一个好习惯，因为它可以让网络学习自己的池化特征。 批量规范和泄漏 ReLU 函数还可以促进健康的梯度流，这对于G和D的学习过程都是至关重要的。 鉴别码 class D
…
 * 8), nn.LeakyReLU(0.2, inplace=True), # state size. (ndf*8) x 4 x 4 nn.Conv2d(ndf * 8, 1, 4, 1, 0, bias=False), nn.Sigmoid() ) def forward(self, input): return self.main(input) 现在，与生成器一样，我们可以创建判别器，应用weights_init函数，并打印模型的结构。 # Create the Discriminator netD = Discriminator(ngpu).to(device) # Handle multi-gpu if desired if (device.type == 'cuda') and (ngpu > 1): netD = nn.DataParallel(netD, list(range(ngpu))) # Apply the weights_init function to randomly initialize all weights # to mean=0, stdev=0.2. netD.apply(weights_init) # Print the model print(netD) 出： Discriminator( (main): Sequential( (0): Conv2d(3, 64, kernel_size=(4, 4), stride=(2, 2), padding=(1, 1), bias=False) (1): LeakyReLU(negative_slope=0.2, inplace=True) (2): Conv2d(64, 128, kernel_size=(4, 4), stride=(2, 2), padding=(1, 1), bias=False) (3): BatchNorm2d(128, eps=1e-05, momentum=0.1, affine=True, track_running_stats=True) (4): LeakyReLU(negative_slope=0.2, inplace=True) (5): Conv2d(128, 256, kernel_size=(4, 4), stride=(2, 2), padding=(1, 1), bias=False) (6): BatchNorm2d(256, eps=1e-05, momentum=0.1, affine=True, track_running_stats=True) (7): LeakyReLU(negative_slope=0.2, inplace=True) (8): Conv2d(256, 512, kernel_size=(4, 4), stride=(2, 2), padding=(1, 1), bias=False) (9): BatchNorm2d(512, eps=1e-05, momentum=0.1, affine=True, track_running_stats=True) (10): LeakyReLU(negative_slope=0.2, inplace=True) (11): Conv2d(512, 1, kernel_size=(4, 4), stride=(1, 1), bias=False) (12): Sigmoid() ) ) 损失函数和优化器 使用D和G设置，我们可以指定它们如何通过损失函数和优化器学习。 我们将使用在 PyTorch 中定义的二进制交叉熵损失（BCELoss）函数： 请注意，此函数如何提供目标函数中两个对数分量的计算（即log D(x)和log(1 - D(G(z)))）。 我们可以指定y输入使用 BCE 方程的哪一部分。 这是在即将到来的训练循环中完成的，但重要的是要了解我们如何仅通过更改y（即GT标签）即可选择希望计算的分量。 接下来，我们将实际标签定义为 1，将假标签定义为 0。这些标签将在计算D和G的损失时使用，这也是 GAN 原始论文中使用的惯例 。 最后，我们设置了两个单独的优化器，一个用于D，另一个用于G。 如 DCGAN 论文中所
…
e = 30 data_loader, data_loader_test = prepare_data_loaders(data_path) criterion = nn.CrossEntropyLoss() float_model = load_model(saved_model_dir + float_model_file).to('cpu') 接下来，我们将“融合模块”； 通过节省内存访问量，这可以使模型更快，同时还可以提高数值精度。 尽管这可以用于任何模型，但在量化模型中尤为常见。 print('\\n Inverted Residual Block: Before fusion \\n\\n', float_model.features[1].conv) float_model.eval() # Fuses modules float_model.fuse_model() # Note fusion of Conv+BN+Relu and Conv+Relu print('\\n Inverted Residual Block: After fusion\\n\\n',float_model.features[1].conv) 出： Inverted Residual Block: Before fusion Sequential( (0): ConvBNReLU( (0): Conv2d(32, 32, kernel_size=(3, 3), stride=(1, 1), padding=(1, 1), groups=32, bias=False) (1): BatchNorm2d(32, eps=1e-05, momentum=0.1, affine=True, track_running_stats=True) (2): ReLU() ) (1): Conv2d(32, 16, kernel_size=(1, 1), stride=(1, 1), bias=False) (2): BatchNorm2d(16, eps=1e-05, momentum=0.1, affine=True, track_running_stats=True) ) Inverted Residual Block: After fusion Sequential( (0): ConvBNReLU( (0): ConvReLU2d( (0): Conv2d(32, 32, kernel_size=(3, 3), stride=(1, 1), padding=(1, 1), groups=32) (1): ReLU() ) (1): Identity() (2): Identity() ) (1): Conv2d(32, 16, kernel_size=(1, 1), stride=(1, 1)) (2): Identity() ) 最后，为了获得“基准”精度，让我们看看带有融合模块的未量化模型的精度 num_eval_batches = 10 print(\"Size of baseline model\") print_size_of_model(float_model) top1, top5 = evaluate(float_model, criterion, data_loader_test, neval_batches=num_eval_batches) print('Evaluation accuracy on %d images, %2.2f'%(num_eval_batches * eval_batch_size, top1.avg)) torch.jit.save(torch.ji
…
